…
tion":{"iopub.status.busy":"2021-08-01T20:33:19.414079Z","iopub.execute_input":"2021-08-01T20:33:19.414519Z","iopub.status.idle":"2021-08-01T20:33:19.666101Z","shell.execute_reply.started":"2021-08-01T20:33:19.414476Z","shell.execute_reply":"2021-08-01T20:33:19.664584Z"},"trusted":true},"execution_count":43,"outputs":[{"name":"stdout","text":"Model: \"sequential_2\"\n_________________________________________________________________\nLayer (type)                 Output Shape              Param #   \n=================================================================\nconv2d_12 (Conv2D)           (None, 46, 46, 64)        640       \n_________________________________________________________________\nmax_pooling2d_8 (MaxPooling2 (None, 23, 23, 64)        0         \n_________________________________________________________________\nbatch_normalization_8 (Batch (None, 23, 23, 64)        256       \n_________________________________________________________________\nconv2d_13 (Conv2D)           (None, 23, 23, 128)       73856     \n_________________________________________________________________\nconv2d_14 (Conv2D)           (None, 21, 21, 128)       147584    \n_________________________________________________________________\nmax_pooling2d_9 (MaxPooling2 (None, 10, 10, 128)       0         \n_________________________________________________________________\ndropout_8 (Dropout)          (None, 10, 10, 128)       0         \n_________________________________________________________________\nbatch_normalization_9 (Batch (None, 10, 10, 128)       512       \n_________________________________________________________________\nconv2d_15 (Conv2D)           (None, 10, 10, 256)       295168    \n_________________________________________________________________\nconv2d_16 (Conv2D)           (None, 8, 8, 256)         590080    \n_________________________________________________________________\nmax_pooling2d_10 (MaxPooling (None, 4, 4, 256)         0         \n_________________________________________________________________\ndropout_9 (Dropout)          (None, 4, 4, 256)         0         \n_________________________________________________________________\nbatch_normalization_10 (Batc (None, 4, 4, 256)         1024      \n_________________________________________________________________\nconv2d_17 (Conv2D)           (None, 4, 4, 512)         1180160   \n_________________________________________________________________\nmax_pooling2d_11 (MaxPooling (None, 2, 2, 512)         0         \n_________________________________________________________________\ndropout_10 (Dropout)         (None, 2, 2, 512)         0         \n_________________________________________________________________\nbatch_normalization_11 (Batc (None, 2, 2, 512)         2048      \n_________________________________________________________________\nflatten_2 (Flatten)          (None, 2048)              0         \n_________________________________________________________________\ndense_4 (Dense)              (None, 128)               262272    \n_________________________________________________________________\ndropout_11 (Dropout)         (None, 128)               0         \n_________________________________________________________________\ndense_5 (Dense)              (None, 1)                 129       \n=================================================================\nTotal params: 2,553,729\nTrainable params: 2,551,809\nNon-trainable params: 1,920\n_________________________________________________________________\n","output_type":"stream"}]},{"cell_type":"code","source":"callbacks = [EarlyStopping(patience=4, monitor='val_loss', mode='min'), ReduceLROnPlateau(patience=2, verbose=1)]","
…
tion":{"iopub.status.busy":"2021-08-01T20:55:50.032400Z","iopub.execute_input":"2021-08-01T20:55:50.032695Z","iopub.status.idle":"2021-08-01T20:55:50.229596Z","shell.execute_reply.started":"2021-08-01T20:55:50.032667Z","shell.execute_reply":"2021-08-01T20:55:50.228172Z"},"trusted":true},"execution_count":48,"outputs":[{"name":"stdout","text":"Model: \"sequential_3\"\n_________________________________________________________________\nLayer (type)                 Output Shape              Param #   \n=================================================================\nconv2d_18 (Conv2D)           (None, 46, 46, 64)        640       \n_________________________________________________________________\nmax_pooling2d_12 (MaxPooling (None, 23, 23, 64)        0         \n_________________________________________________________________\nbatch_normalization_12 (Batc (None, 23, 23, 64)        256       \n_________________________________________________________________\nconv2d_19 (Conv2D)           (None, 21, 21, 128)       73856     \n_________________________________________________________________\nmax_pooling2d_13 (MaxPooling (None, 10, 10, 128)       0         \n_________________________________________________________________\ndropout_12 (Dropout)         (None, 10, 10, 128)       0         \n_________________________________________________________________\nbatch_normalization_13 (Batc (None, 10, 10, 128)       512       \n_________________________________________________________________\nconv2d_20 (Conv2D)           (None, 8, 8, 256)         295168    \n_________________________________________________________________\nconv2d_21 (Conv2D)           (None, 6, 6, 256)         590080    \n_________________________________________________________________\nmax_pooling2d_14 (MaxPooling (None, 3, 3, 256)         0         \n_________________________________________________________________\ndropout_13 (Dropout)         (None, 3, 3, 256)         0         \n_________________________________________________________________\nbatch_normalization_14 (Batc (None, 3, 3, 256)         1024      \n_________________________________________________________________\nflatten_3 (Flatten)          (None, 2304)              0         \n_________________________________________________________________\ndense_6 (Dense)              (None, 64)                147520    \n_________________________________________________________________\ndropout_14 (Dropout)         (None, 64)                0         \n_________________________________________________________________\ndense_7 (Dense)              (None, 1)                 65        \n=================================================================\nTotal params: 1,109,121\nTrainable params: 1,108,225\nNon-trainable params: 896\n_________________________________________________________________\n","output_type":"stream"}]},{"cell_type":"code","source":"callbacks = [EarlyStopping(patience=4, monitor='val_accuracy', mode='max'), ReduceLROnPlateau(patience=2, verbose=1)]
…
tion":{"iopub.status.busy":"2021-08-01T21:06:19.398126Z","iopub.execute_input":"2021-08-01T21:06:19.398680Z","iopub.status.idle":"2021-08-01T21:06:19.579104Z","shell.execute_reply.started":"2021-08-01T21:06:19.398631Z","shell.execute_reply":"2021-08-01T21:06:19.577708Z"},"trusted":true},"execution_count":57,"outputs":[{"name":"stdout","text":"Model: \"sequential_4\"\n_________________________________________________________________\nLayer (type)                 Output Shape              Param #   \n=================================================================\nconv2d_22 (Conv2D)           (None, 46, 46, 64)        640       \n_________________________________________________________________\nmax_pooling2d_15 (MaxPooling (None, 23, 23, 64)        0         \n_________________________________________________________________\nbatch_normalization_15 (Batc (None, 23, 23, 64)        256       \n_________________________________________________________________\nconv2d_23 (Conv2D)           (None, 21, 21, 128)       73856     \n_________________________________________________________________\nmax_pooling2d_16 (MaxPooling (None, 10, 10, 128)       0         \n_________________________________________________________________\nbatch_normalization_16 (Batc (None, 10, 10, 128)       512       \n_________________________________________________________________\nconv2d_24 (Conv2D)           (None, 8, 8, 256)         295168    \n_________________________________________________________________\nmax_pooling2d_17 (MaxPooling (None, 4, 4, 256)         0         \n_________________________________________________________________\ndropout_15 (Dropout)         (None, 4, 4, 256)         0         \n_________________________________________________________________\nbatch_normalization_17 (Batc (None, 4, 4, 256)         1024      \n_________________________________________________________________\nflatten_4 (Flatten)          (None, 4096)              0         \n_________________________________________________________________\ndense_8 (Dense)              (None, 128)               524416    \n_________________________________________________________________\ndropout_16 (Dropout)         (None, 128)               0         \n_________________________________________________________________\ndense_9 (Dense)              (None, 5)                 645       \n=================================================================\nTotal params: 896,517\nTrainable params: 895,621\nNon-trainable params: 896\n_________________________________________________________________\n","output_type":"stream"}]},{"cell_type":"code","source":"callbacks = [EarlyStopping(patience=4, monitor='val_accuracy', mode='max'), ReduceLROnPlateau(patience=2, verbose=1)]","me
…
